model.pt (torch, 5224 bytes, 8 tensors)

weight f4 [5, 3]
000000 6a cb c5 3e 2d c3 2b 3e 3b 6e ee 3d 98 61 b2 be
       0.38631755 0.16773672 0.116421185 -0.34840083
000010 db 64 a6 be 0b de a0 be 54 a7 9f be ec 32 86 be
       -0.32498822 -0.31419405 -0.3118235 -0.26210725
000020 7f 7c c9 3e 00 bf 8a 3b ef 8c 00 bf a9 46 d4 be
       0.39352795 0.0042341948 -0.5021505 -0.4146016
000030 6e b2 46 3d 13 8d 11 be 04 6a 57 3e
       0.048510008 -0.14213972 0.21036536

bias f4 [5]
000000 92 c9 f1 3d 74 e9 ba bd 38 ba d7 3e 00 2b 04 bb
       0.118060246 -0.09126559 0.4213426 -0.0020167232
000010 ce 53 a4 3e
       0.32095188

weight f4 [5, 5]
000000 10 30 09 3d a8 5c 94 be d8 1d d4 3d 00 aa c7 3e
       0.0334931 -0.2897694 0.10357255 0.38996887
000010 7c 9f d3 bd f3 7f 7f 3e 2c bb 14 3e 6f 36 c7 3e
       -0.103331536 0.24951153 0.14524525 0.38908717
000020 60 b6 1e 3e 01 d8 0c 3c 92 85 d7 3e 10 61 c6 3d
       0.15499258 0.008596421 0.42094094 0.09686482
000030 62 ff b8 bd d0 15 b7 3d c9 96 af be f3 fa b5 be
       -0.090330854 0.08939707 -0.34294727 -0.35543022
000040 d0 b6 8f 3c 1a 04 d8 3e 92 e1 93 3e 4d 32 99 bb
       0.017543226 0.4219063 0.28883034 -0.004675186
000050 92 50 82 3e b4 24 8a bd 32 2e 71 be 3f 40 e1 be
       0.25452095 -0.06745282 -0.23552778 -0.43994328
000060 98 f8 8b bd
       -0.06834525

bias f4 [5]
000000 60 84 46 be 0b 86 9b 3e 82 e9 61 bd 8b d7 7c 3d
       -0.19386435 0.30375704 -0.05515433 0.061728995
000010 0c 66 a2 be
       -0.3171848

weight f4 [5, 5]
000000 1e f3 c4 be d1 ba 92 bd 89 a5 0d 3e ec 27 b1 bd
       -0.38466734 -0.07164539 0.13832678 -0.086501926
000010 2e 68 86 be 64 40 bb be b2 0d 74 be 12 85 81 3e
       -0.26251358 -0.36572564 -0.2383335 0.25296837
000020 70 59 54 be 68 ba 4c 3d 22 f8 80 be e8 04 7d be
       -0.20737243 0.04998246 -0.2518931 -0.24708903
000030 9c 76 a5 be 10 62 c4 3c b8 ad 1e 3e f0 47 43 bd
       -0.32317054 0.023972541 0.15495956 -0.047676027
000040 fc 49 56 3e 10 e1 63 3d b8 6f de 3d 00 c7 a5 bd
       0.2092666 0.05563456 0.108611524 -0.08094597
000050 62 03 4f be a4 20 c3 be f8 83 f7 3d c4 2a 11 3e
       -0.20216134 -0.3811084 0.12085718 0.1417647
000060 70 3d 8b bd
       -0.06798828

bias f4 [5]
000000 4e c8 c2 3e 9a 0c c7 be 20 e5 b6 3c 86 b3 79 be
       0.38043445 -0.38876802 0.022326052 -0.24384889
000010 f0 7b fe 3d
       0.12425983

weight f4 [3, 5]
000000 04 e5 a6 be 5c cd 29 be 98 f8 8c 3e a0 66 42 3e
       -0.325966 -0.16582245 0.27533412 0.18984461
000010 e0 e3 45 3e 87 cc f9 3e b2 c6 80 3e 44 80 a1 3e
       0.19325209 0.48788854 0.25151592 0.3154317
000020 30 d6 78 3e 08 f0 0c be 9d 5d 46 3c 20 fe 2b 3d
       0.24300456 -0.1376344 0.01210728 0.0419904
000030 92 94 e1 3e f8 c0 5c bd 2c 88 2c 3e
       0.44058663 -0.053894967 0.1684882

bias f4 [3]
000000 6e e8 8e 3e a8 2b fc 3e 0a c8 2c 3e
       0.27911705 0.49252057 0.16873184
